…
    "# Using 'binary_crossentropy' since it is a binary classification problem\n",
    "model = build_dense()\n",
    "model.compile(Adam(lr=0.00001), loss='binary_crossentropy', metrics=['accuracy'])"
   ]
  },
  {
   "cell_type": "code",
   "execution_count": 42,
   "metadata": {},
   "outputs": [
    {
     "name": "stdout",
     "output_type": "stream",
     "text": [
      "_________________________________________________________________\n",
      "Layer (type)                 Output Shape              Param #   \n",
      "=================================================================\n",
      "dense_1 (Dense)              (None, 4997, 4, 120)      240       \n",
      "_________________________________________________________________\n",
      "dropout_1 (Dropout)          (None, 4997, 4, 120)      0         \n",
      "_________________________________________________________________\n",
      "dense_2 (Dense)              (None, 4997, 4, 120)      14520     \n",
      "_________________________________________________________________\n",
      "dropout_2 (Dropout)          (None, 4997, 4, 120)      0         \n",
      "_________________________________________________________________\n",
      "dense_3 (Dense)              (None, 4997, 4, 64)       7744      \n",
      "_________________________________________________________________\n",
      "dropout_3 (Dropout)          (None, 4997, 4, 64)       0         \n",
      "_________________________________________________________________\n",
      "flatten_1 (Flatten)          (None, 1279232)           0         \n",
      "_________________________________________________________________\n",
      "dense_4 (Dense)              (None, 1)                 1279233   \n",
      "=================================================================\n",
      "Total params: 1,301,737\n",
      "Trainable params: 1,301,737\n",
      "Non-trainable params: 0\n",
      "_________________________________________________________________\n"
     ]
    }
   ],
   "source": [
    "model.summary()"
   ]
  },
  {
   "cell_type": "code",
   "execution_count": null,
   "metadata": {},
…
